…
lr_init=0.1, lr_scheduler='cosine', mode='sup_CSI_linear', model='live', multi_gpu=False, n_classes=2, n_gpus=1, n_superclasses=2, no_strict=True, one_class_idx=1, ood_batch_size=100, ood_dataset=[0], ood_layer='simclr', ood_samples=1, ood_score=['norm_mean'], optimizer='lars', print_score=False, resize_factor=0.08, resize_fix=False, resume_path=None, save_score=False, save_step=10, shift_trans=CutPerm(), shift_trans_type='cutperm', sim_lambda=1.0, simclr_dim=128, suffix=None, temperature=0.5, test_batch_size=100, warmup=10, weight_decay=1e-06)
[2020-12-05 10:22:56.052560] LiveModel(
  (linear): Linear(in_features=128, out_features=2, bias=True)
  (simclr_layer): Sequential(
    (0): Linear(in_features=128, out_features=128, bias=True)
    (1): ReLU()
    (2): Linear(in_features=128, out_features=128, bias=True)
  )
  (shift_cls_layer): Linear(in_features=128, out_features=4, bias=True)
  (joint_distribution_layer): Linear(in_features=128, out_features=8, bias=True)
  (conv1): Conv2d(1, 8, kernel_size=(5, 5), stride=(1, 1))
  (conv2a): Conv2d(8, 12, kernel_size=(1, 1), stride=(1, 1))
  (conv2): Conv2d(12, 12, kernel_size=(3, 3), stride=(1, 1))
  (conv3a): Conv2d(12, 24, kernel_size=(1, 1), stride=(1, 1))
  (conv3): Conv2d(24, 24, kernel_size=(3, 3), stride=(1, 1))
  (conv4a): Conv2d(24, 32, kernel_size=(1, 1), stride=(1, 1))
  (conv4): Conv2d(32, 32, kernel_size=(3, 3), stride=(1, 1))
  (fc1_1): Linear(in_features=2048, out_features=128, bias=True)
  (fc2_1): Linear(in_features=128, out_features=2, bias=True)
)
Epoch 1 (logs/live_live_sup_CSI_linear)
[2020-12-05 10:22:57.062147] [Epoch   1;   0] [Time 0.770] [Data 0.238] [LR 0.10000]
[LossC 0.894932] [LossR 1.393936]
[2020-12-05 10:22:58.730494] [Epoch   1;  50] [Time 0.013] [Data 0.003] [LR 0.10000]
[LossC 0.005744] [LossR 1.306342]
[2020-12-05 10:23:00.428664] [Epoch   1; 100] [Time 0.014] [Data 0.003] [LR 0.10000]
…
[2020-12-05 22:16:59.502631] Namespace(K_shift=4, batch_size=4, dataset='live', epochs=1000, error_step=5, image_size=128, load_path='models/live.pth', local_rank=0, lr_init=0.1, lr_scheduler='cosine', mode='sup_CSI_linear', model='live', multi_gpu=False, n_classes=2, n_gpus=1, n_superclasses=2, no_strict=True, one_class_idx=1, ood_batch_size=100, ood_dataset=[0], ood_layer='simclr', ood_samples=1, ood_score=['norm_mean'], optimizer='sgd', print_score=False, resize_factor=0.08, resize_fix=False, resume_path='logs/live_live_sup_CSI_linear', save_score=False, save_step=10, shift_trans=CutPerm(), shift_trans_type='cutperm', sim_lambda=1.0, simclr_dim=128, suffix=None, temperature=0.5, test_batch_size=100, warmup=10, weight_decay=1e-06)
[2020-12-05 22:16:59.521618] LiveModel(
  (linear): Linear(in_features=128, out_features=2, bias=True)
  (simclr_layer): Sequential(
    (0): Linear(in_features=128, out_features=128, bias=True)
    (1): ReLU()
    (2): Linear(in_features=128, out_features=128, bias=True)
  )
  (shift_cls_layer): Linear(in_features=128, out_features=4, bias=True)
  (joint_distribution_layer): Linear(in_features=128, out_features=8, bias=True)
  (conv1): Conv2d(1, 8, kernel_size=(5, 5), stride=(1, 1))
  (conv2a): Conv2d(8, 12, kernel_size=(1, 1), stride=(1, 1))
  (conv2): Conv2d(12, 12, kernel_size=(3, 3), stride=(1, 1))
  (conv3a): Conv2d(12, 24, kernel_size=(1, 1), stride=(1, 1))
  (conv3): Conv2d(24, 24, kernel_size=(3, 3), stride=(1, 1))
  (conv4a): Conv2d(24, 32, kernel_size=(1, 1), stride=(1, 1))
  (conv4): Conv2d(32, 32, kernel_size=(3, 3), stride=(1, 1))
  (fc1_1): Linear(in_features=2048, out_features=128, bias=True)
  (fc2_1): Linear(in_features=128, out_features=2, bias=True)
)
[2020-12-05 22:21:36.309750] Namespace(K_shift=4, batch_size=4, dataset='live', epochs=1000, error_step=5, image_size=128, load_path='models/live.pth', local_rank=0, lr_init=0.1, lr_scheduler='cosine', mode='sup_CSI_linear', model='live', multi_gpu=False, n_classes=2, n_gpus=1, n_superclasses=2, no_strict=True, one_class_idx=1, ood_batch_size=100, ood_dataset=[0], ood_layer='simclr', ood_samples=1, ood_score=['norm_mean'], optimizer='sgd', print_score=False, resize_factor=0.08, resize_fix=False, resume_path='logs/live_live_sup_CSI_linear', save_score=False, save_step=10, shift_trans=CutPerm(), shift_trans_type='cutperm', sim_lambda=1.0, simclr_dim=128, suffix=None, temperature=0.5, test_batch_size=100, warmup=10, weight_decay=1e-06)
[2020-12-05 22:21:36.311749] LiveModel(
  (linear): Linear(in_features=128, out_features=2, bias=True)
  (simclr_layer): Sequential(
    (0): Linear(in_features=128, out_features=128, bias=True)
    (1): ReLU()
    (2): Linear(in_features=128, out_features=128, bias=True)
  )
  (shift_cls_layer): Linear(in_features=128, out_features=4, bias=True)
  (joint_distribution_layer): Linear(in_features=128, out_features=8, bias=True)
  (conv1): Conv2d(1, 8, kernel_size=(5, 5), stride=(1, 1))
  (conv2a): Conv2d(8, 12, kernel_size=(1, 1), stride=(1, 1))
  (conv2): Conv2d(12, 12, kernel_size=(3, 3), stride=(1, 1))
  (conv3a): Conv2d(12, 24, kernel_size=(1, 1), stride=(1, 1))
  (conv3): Conv2d(24, 24, kernel_size=(3, 3), stride=(1, 1))
  (conv4a): Conv2d(24, 32, kernel_size=(1, 1), stride=(1, 1))
  (conv4): Conv2d(32, 32, kernel_size=(3, 3), stride=(1, 1))
  (fc1_1): Linear(in_features=2048, out_features=128, bias=True)
  (fc2_1): Linear(in_features=128, out_features=2, bias=True)
)
[2020-12-05 22:29:27.227817] Namespace(K_shift=4, batch_size=4, dataset='live', epochs=1000, error_step=5, image_size=128, load_path='models/live.pth', local_rank=0, lr_init=0.1, lr_scheduler='cosine', mode='sup_CSI_linear', model='live', multi_gpu=False, n_classes=2, n_gpus=1, n_superclasses=2, no_strict=True, one_class_idx=1, ood_batch_size=100, ood_dataset=[0], ood_layer='simclr', ood_samples=1, ood_score=['norm_mean'], optimizer='sgd', print_score=False, resize_factor=0.08, resize_fix=False, resume_path='logs/live_live_sup_CSI_linear', save_score=False, save_step=10, shift_trans=CutPerm(), shift_trans_type='cutperm', sim_lambda=1.0, simclr_dim=128, suffix=None, temperature=0.5, test_batch_size=100, warmup=10, weight_decay=1e-06)
[2020-12-05 22:29:27.228816] LiveModel(
  (linear): Linear(in_features=128, out_features=2, bias=True)
  (simclr_layer): Sequential(
    (0): Linear(in_features=128, out_features=128, bias=True)
    (1): ReLU()
    (2): Linear(in_features=128, out_features=128, bias=True)
  )
  (shift_cls_layer): Linear(in_features=128, out_features=4, bias=True)
  (joint_distribution_layer): Linear(in_features=128, out_features=8, bias=True)
  (conv1): Conv2d(1, 8, kernel_size=(5, 5), stride=(1, 1))
  (conv2a): Conv2d(8, 12, kernel_size=(1, 1), stride=(1, 1))
  (conv2): Conv2d(12, 12, kernel_size=(3, 3), stride=(1, 1))
  (conv3a): Conv2d(12, 24, kernel_size=(1, 1), stride=(1, 1))
  (conv3): Conv2d(24, 24, kernel_size=(3, 3), stride=(1, 1))
  (conv4a): Conv2d(24, 32, kernel_size=(1, 1), stride=(1, 1))
  (conv4): Conv2d(32, 32, kernel_size=(3, 3), stride=(1, 1))
  (fc1_1): Linear(in_features=2048, out_features=128, bias=True)
  (fc2_1): Linear(in_features=128, out_features=2, bias=True)
)
[2020-12-05 22:30:28.754694] Namespace(K_shift=4, batch_size=4, dataset='live', epochs=1000, error_step=5, image_size=128, load_path='models/live.pth', local_rank=0, lr_init=0.1, lr_scheduler='cosine', mode='sup_CSI_linear', model='live', multi_gpu=False, n_classes=2, n_gpus=1, n_superclasses=2, no_strict=True, one_class_idx=1, ood_batch_size=100, ood_dataset=[0], ood_layer='simclr', ood_samples=1, ood_score=['norm_mean'], optimizer='sgd', print_score=False, resize_factor=0.08, resize_fix=False, resume_path='logs/live_live_sup_CSI_linear', save_score=False, save_step=10, shift_trans=CutPerm(), shift_trans_type='cutperm', sim_lambda=1.0, simclr_dim=128, suffix=None, temperature=0.5, test_batch_size=100, warmup=10, weight_decay=1e-06)
[2020-12-05 22:30:28.755693] LiveModel(
  (linear): Linear(in_features=128, out_features=2, bias=True)
  (simclr_layer): Sequential(
    (0): Linear(in_features=128, out_features=128, bias=True)
    (1): ReLU()
    (2): Linear(in_features=128, out_features=128, bias=True)
  )
  (shift_cls_layer): Linear(in_features=128, out_features=4, bias=True)
  (joint_distribution_layer): Linear(in_features=128, out_features=8, bias=True)
  (conv1): Conv2d(1, 8, kernel_size=(5, 5), stride=(1, 1))
  (conv2a): Conv2d(8, 12, kernel_size=(1, 1), stride=(1, 1))
  (conv2): Conv2d(12, 12, kernel_size=(3, 3), stride=(1, 1))
  (conv3a): Conv2d(12, 24, kernel_size=(1, 1), stride=(1, 1))
  (conv3): Conv2d(24, 24, kernel_size=(3, 3), stride=(1, 1))
  (conv4a): Conv2d(24, 32, kernel_size=(1, 1), stride=(1, 1))
  (conv4): Conv2d(32, 32, kernel_size=(3, 3), stride=(1, 1))
  (fc1_1): Linear(in_features=2048, out_features=128, bias=True)
  (fc2_1): Linear(in_features=128, out_features=2, bias=True)
)
Epoch 660 (logs/live_live_sup_CSI_linear)
[2020-12-05 22:35:20.352455] Namespace(K_shift=4, batch_size=4, dataset='live', epochs=1000, error_step=5, image_size=128, load_path='models/live.pth', local_rank=0, lr_init=0.1, lr_scheduler='cosine', mode='sup_CSI_linear', model='live', multi_gpu=False, n_classes=2, n_gpus=1, n_superclasses=2, no_strict=True, one_class_idx=1, ood_batch_size=100, ood_dataset=[0], ood_layer='simclr', ood_samples=1, ood_score=['norm_mean'], optimizer='sgd', print_score=False, resize_factor=0.08, resize_fix=False, resume_path='logs/live_live_sup_CSI_linear', save_score=False, save_step=10, shift_trans=CutPerm(), shift_trans_type='cutperm', sim_lambda=1.0, simclr_dim=128, suffix=None, temperature=0.5, test_batch_size=100, warmup=10, weight_decay=1e-06)
[2020-12-05 22:35:20.354453] LiveModel(
  (linear): Linear(in_features=128, out_features=2, bias=True)
  (simclr_layer): Sequential(
    (0): Linear(in_features=128, out_features=128, bias=True)
    (1): ReLU()
    (2): Linear(in_features=128, out_features=128, bias=True)
  )
  (shift_cls_layer): Linear(in_features=128, out_features=4, bias=True)
  (joint_distribution_layer): Linear(in_features=128, out_features=8, bias=True)
  (conv1): Conv2d(1, 8, kernel_size=(5, 5), stride=(1, 1))
  (conv2a): Conv2d(8, 12, kernel_size=(1, 1), stride=(1, 1))
  (conv2): Conv2d(12, 12, kernel_size=(3, 3), stride=(1, 1))
  (conv3a): Conv2d(12, 24, kernel_size=(1, 1), stride=(1, 1))
  (conv3): Conv2d(24, 24, kernel_size=(3, 3), stride=(1, 1))
  (conv4a): Conv2d(24, 32, kernel_size=(1, 1), stride=(1, 1))
  (conv4): Conv2d(32, 32, kernel_size=(3, 3), stride=(1, 1))
  (fc1_1): Linear(in_features=2048, out_features=128, bias=True)
  (fc2_1): Linear(in_features=128, out_features=2, bias=True)
)
Epoch 660 (logs/live_live_sup_CSI_linear)
[2020-12-05 22:40:19.616028] Namespace(K_shift=4, batch_size=4, dataset='live', epochs=1000, error_step=5, image_size=128, load_path='models/live.pth', local_rank=0, lr_init=0.1, lr_scheduler='cosine', mode='sup_CSI_linear', model='live', multi_gpu=False, n_classes=2, n_gpus=1, n_superclasses=2, no_strict=True, one_class_idx=1, ood_batch_size=100, ood_dataset=[0], ood_layer='simclr', ood_samples=1, ood_score=['norm_mean'], optimizer='sgd', print_score=False, resize_factor=0.08, resize_fix=False, resume_path='logs/live_live_sup_CSI_linear', save_score=False, save_step=10, shift_trans=CutPerm(), shift_trans_type='cutperm', sim_lambda=1.0, simclr_dim=128, suffix=None, temperature=0.5, test_batch_size=100, warmup=10, weight_decay=1e-06)
[2020-12-05 22:40:19.618025] LiveModel(
  (linear): Linear(in_features=128, out_features=2, bias=True)
  (simclr_layer): Sequential(
    (0): Linear(in_features=128, out_features=128, bias=True)
    (1): ReLU()
    (2): Linear(in_features=128, out_features=128, bias=True)
  )
  (shift_cls_layer): Linear(in_features=128, out_features=4, bias=True)
  (joint_distribution_layer): Linear(in_features=128, out_features=8, bias=True)
  (conv1): Conv2d(1, 8, kernel_size=(5, 5), stride=(1, 1))
  (conv2a): Conv2d(8, 12, kernel_size=(1, 1), stride=(1, 1))
  (conv2): Conv2d(12, 12, kernel_size=(3, 3), stride=(1, 1))
  (conv3a): Conv2d(12, 24, kernel_size=(1, 1), stride=(1, 1))
  (conv3): Conv2d(24, 24, kernel_size=(3, 3), stride=(1, 1))
  (conv4a): Conv2d(24, 32, kernel_size=(1, 1), stride=(1, 1))
  (conv4): Conv2d(32, 32, kernel_size=(3, 3), stride=(1, 1))
  (fc1_1): Linear(in_features=2048, out_features=128, bias=True)
  (fc2_1): Linear(in_features=128, out_features=2, bias=True)
)
Epoch 660 (logs/live_live_sup_CSI_linear)
[2020-12-05 22:49:30.614644] Namespace(K_shift=4, batch_size=4, dataset='live', epochs=1000, error_step=5, image_size=128, load_path='models/live.pth', local_rank=0, lr_init=0.1, lr_scheduler='cosine', mode='sup_CSI_linear', model='live', multi_gpu=False, n_classes=2, n_gpus=1, n_superclasses=2, no_strict=True, one_class_idx=1, ood_batch_size=100, ood_dataset=[0], ood_layer='simclr', ood_samples=1, ood_score=['norm_mean'], optimizer='sgd', print_score=False, resize_factor=0.08, resize_fix=False, resume_path='logs/live_live_sup_CSI_linear', save_score=False, save_step=10, shift_trans=CutPerm(), shift_trans_type='cutperm', sim_lambda=1.0, simclr_dim=128, suffix=None, temperature=0.5, test_batch_size=100, warmup=10, weight_decay=1e-06)
[2020-12-05 22:49:30.616645] LiveModel(
  (linear): Linear(in_features=128, out_features=2, bias=True)
  (simclr_layer): Sequential(
    (0): Linear(in_features=128, out_features=128, bias=True)
    (1): ReLU()
    (2): Linear(in_features=128, out_features=128, bias=True)
  )
  (shift_cls_layer): Linear(in_features=128, out_features=4, bias=True)
  (joint_distribution_layer): Linear(in_features=128, out_features=8, bias=True)
  (conv1): Conv2d(1, 8, kernel_size=(5, 5), stride=(1, 1))
  (conv2a): Conv2d(8, 12, kernel_size=(1, 1), stride=(1, 1))
  (conv2): Conv2d(12, 12, kernel_size=(3, 3), stride=(1, 1))
  (conv3a): Conv2d(12, 24, kernel_size=(1, 1), stride=(1, 1))
  (conv3): Conv2d(24, 24, kernel_size=(3, 3), stride=(1, 1))
  (conv4a): Conv2d(24, 32, kernel_size=(1, 1), stride=(1, 1))
  (conv4): Conv2d(32, 32, kernel_size=(3, 3), stride=(1, 1))
  (fc1_1): Linear(in_features=2048, out_features=128, bias=True)
  (fc2_1): Linear(in_features=128, out_features=2, bias=True)
)
Epoch 660 (logs/live_live_sup_CSI_linear)
[2020-12-05 22:49:43.448455] [Epoch 660;   0] [Time 1.940] [Data 0.005] [LR 0.00100]
[LossC 0.000000] [LossR 0.360707]
[2020-12-05 22:49:44.314922] [Epoch 660;  50] [Time 0.016] [Data 0.001] [LR 0.00100]
[LossC 0.000501] [LossR 0.125310]
[2020-12-05 22:49:45.188384] [Epoch 660; 100] [Time 0.015] [Data 0.000] [LR 0.00100]
…
